…
    "model.add(Dense(128, activation = 'relu'))\n",
    "model.add(Dense(64,activation = 'relu'))\n",
    "model.add(Dense(25,activation = 'softmax'))"
   ]
  },
  {
   "cell_type": "code",
   "execution_count": 9,
   "id": "68e2018f",
   "metadata": {},
   "outputs": [
    {
     "name": "stdout",
     "output_type": "stream",
     "text": [
      "Model: \"sequential_1\"\n",
      "_________________________________________________________________\n",
      " Layer (type)                Output Shape              Param #   \n",
      "=================================================================\n",
      " conv2d_3 (Conv2D)           (None, 254, 254, 64)      1792      \n",
      "                                                                 \n",
      " max_pooling2d_3 (MaxPoolin  (None, 127, 127, 64)      0         \n",
      " g2D)                                                            \n",
      "                                                                 \n",
      " conv2d_4 (Conv2D)           (None, 125, 125, 32)      18464     \n",
      "                                                                 \n",
      " max_pooling2d_4 (MaxPoolin  (None, 62, 62, 32)        0         \n",
      " g2D)                                                            \n",
      "                                                                 \n",
      " conv2d_5 (Conv2D)           (None, 60, 60, 32)        9248      \n",
      "                                                                 \n",
      " max_pooling2d_5 (MaxPoolin  (None, 30, 30, 32)        0         \n",
      " g2D)                                                            \n",
      "                                                                 \n",
      " flatten_1 (Flatten)         (None, 28800)             0         \n",
      "                                                                 \n",
      " dense_3 (Dense)             (None, 128)               3686528   \n",
      "                                                                 \n",
      " dense_4 (Dense)             (None, 64)                8256      \n",
      "                                                                 \n",
      " dense_5 (Dense)             (None, 25)                1625      \n",
      "                                                                 \n",
      "=================================================================\n",
      "Total params: 3725913 (14.21 MB)\n",
      "Trainable params: 3725913 (14.21 MB)\n",
      "Non-trainable params: 0 (0.00 Byte)\n",
      "_________________________________________________________________\n"
     ]
    }
   ],
   "source": [
…
